…
            "Downloading https://ultralytics.com/assets/Arial.ttf to /root/.config/Ultralytics/Arial.ttf...\n",
            "100% 755k/755k [00:00<00:00, 4.78MB/s]\n",
            "Downloading https://github.com/ultralytics/yolov5/releases/download/v7.0/yolov5n.pt to yolov5n.pt...\n",
            "100% 3.87M/3.87M [00:00<00:00, 16.1MB/s]\n",
            "\n",
            "Overriding model.yaml nc=80 with nc=2\n",
            "\n",
            "                 from  n    params  module                                  arguments                     \n",
            "  0                -1  1      1760  models.common.Conv                      [3, 16, 6, 2, 2]              \n",
            "  1                -1  1      4672  models.common.Conv                      [16, 32, 3, 2]                \n",
            "  2                -1  1      4800  models.common.C3                        [32, 32, 1]                   \n",
            "  3                -1  1     18560  models.common.Conv                      [32, 64, 3, 2]                \n",
            "  4                -1  2     29184  models.common.C3                        [64, 64, 2]                   \n",
            "  5                -1  1     73984  models.common.Conv                      [64, 128, 3, 2]               \n",
            "  6                -1  3    156928  models.common.C3                        [128, 128, 3]                 \n",
            "  7                -1  1    295424  models.common.Conv                      [128, 256, 3, 2]              \n",
            "  8                -1  1    296448  models.common.C3                        [256, 256, 1]                 \n",
            "  9                -1  1    164608  models.common.SPPF                      [256, 256, 5]                 \n",
            " 10                -1  1     33024  models.common.Conv                      [256, 128, 1, 1]              \n",
            " 11                -1  1         0  torch.nn.modules.upsampling.Upsample    [None, 2, 'nearest']          \n",
            " 12           [-1, 6]  1         0  models.common.Concat                    [1]                           \n",
            " 13                -1  1     90880  models.common.C3                        [256, 128, 1, False]          \n",
            " 14                -1  1      8320  models.common.Conv                      [128, 64, 1, 1]               \n",
            " 15                -1  1         0  torch.nn.modules.upsampling.Upsample    [None, 2, 'nearest']          \n",
            " 16           [-1, 4]  1         0  models.common.Concat                    [1]                           \n",
            " 17                -1  1     22912  models.common.C3                        [128, 64, 1, False]           \n",
            " 18                -1  1     36992  models.common.Conv                      [64, 64, 3, 2]                \n",
            " 19          [-1, 14]  1         0  models.common.Concat                    [1]                           \n",
            " 20                -1  1     74496  models.common.C3                        [128, 128, 1, False]          \n",
            " 21                -1  1    147712  models.common.Conv                      [128, 128, 3, 2]              \n",
            " 22          [-1, 10]  1         0  models.common.Concat                    [1]                           \n",
            " 23                -1  1    296448  models.common.C3                        [256, 256, 1, False]          \n",
            " 24      [17, 20, 23]  1      9471  models.yolo.Detect                      [2, [[10, 13, 16, 30, 33, 23], [30, 61, 62, 45, 59, 119], [116, 90, 156, 198, 373, 326]], [64, 128, 256]]\n",
            "Model summary: 214 layers, 1766623 parameters, 1766623 gradients, 4.2 GFLOPs\n",
            "\n",
            "Transferred 343/349 items from yolov5n.pt\n",
…
